…
        ValueError: In case of invalid arguments for
            `optimizer`, `loss`, `metrics` or `sample_weight_mode`.
    
&lt;/pre&gt;

&lt;div class="highlight"&gt;&lt;pre&gt;&lt;span&gt;&lt;/span&gt;model.compile(loss='binary_crossentropy', optimizer='adam', metrics=['accuracy'])
print(model.summary())
&lt;/pre&gt;&lt;/div&gt;

&lt;pre class="example"&gt;
Model: "sequential_1"
_________________________________________________________________
Layer (type)                 Output Shape              Param #   
=================================================================
embedding_2 (Embedding)      (None, 120, 16)           16000     
_________________________________________________________________
conv1d_1 (Conv1D)            (None, 116, 128)          10368     
_________________________________________________________________
global_max_pooling1d_2 (Glob (None, 128)               0         
_________________________________________________________________
dense_4 (Dense)              (None, 24)                3096      
_________________________________________________________________
dense_5 (Dense)              (None, 1)                 25        
=================================================================
Total params: 29,489
Trainable params: 29,489
Non-trainable params: 0
_________________________________________________________________
None
&lt;/pre&gt;
&lt;/div&gt;
&lt;/div&gt;
&lt;/div&gt;
&lt;div id="outline-container-org7f80ef0" class="outline-3"&gt;
&lt;h3 id="org7f80ef0"&gt;Train It&lt;/h3&gt;
&lt;div class="outline-text-3" id="text-org7f80ef0"&gt;
…
t;/span&gt;
&lt;span class="p"&gt;])&lt;/span&gt;
&lt;/pre&gt;&lt;/div&gt;

&lt;div class="highlight"&gt;&lt;pre&gt;&lt;span&gt;&lt;/span&gt;&lt;span class="n"&gt;model&lt;/span&gt;&lt;span class="o"&gt;.&lt;/span&gt;&lt;span class="n"&gt;summary&lt;/span&gt;&lt;span class="p"&gt;()&lt;/span&gt;
&lt;/pre&gt;&lt;/div&gt;

&lt;pre class="example"&gt;
Model: "sequential_6"
_________________________________________________________________
Layer (type)                 Output Shape              Param #   
=================================================================
conv2d_12 (Conv2D)           (None, 26, 26, 64)        640       
_________________________________________________________________
max_pooling2d_12 (MaxPooling (None, 13, 13, 64)        0         
_________________________________________________________________
conv2d_13 (Conv2D)           (None, 11, 11, 128)       73856     
_________________________________________________________________
max_pooling2d_13 (MaxPooling (None, 5, 5, 128)         0         
_________________________________________________________________
flatten_6 (Flatten)          (None, 3200)              0         
_________________________________________________________________
dropout_6 (Dropout)          (None, 3200)              0         
_________________________________________________________________
dense_12 (Dense)             (None, 512)               1638912   
_________________________________________________________________
dense_13 (Dense)             (None, 25)                12825     
=================================================================
Total params: 1,726,233
Trainable params: 1,726,233
Non-trainable params: 0
_________________________________________________________________
&lt;/pre&gt;
&lt;/div&gt;

&lt;div id="outline-container-org634adc6" class="outline-4"&gt;
&lt;h4 id="org634adc6"&gt;Train It&lt;/h4&gt;
&lt;div class="outline-text-4" id="text-org634adc6"&gt;
…
&lt;/pre&gt;&lt;/div&gt;

&lt;p&gt;
Here's a summary of the layers.
&lt;/p&gt;
&lt;div class="highlight"&gt;&lt;pre&gt;&lt;span&gt;&lt;/span&gt;&lt;span class="n"&gt;model&lt;/span&gt;&lt;span class="o"&gt;.&lt;/span&gt;&lt;span class="n"&gt;summary&lt;/span&gt;&lt;span class="p"&gt;()&lt;/span&gt;
&lt;/pre&gt;&lt;/div&gt;

&lt;pre class="example"&gt;
Model: "sequential_4"
_________________________________________________________________
Layer (type)                 Output Shape              Param #   
=================================================================
conv2d_16 (Conv2D)           (None, 148, 148, 64)      1792      
_________________________________________________________________
max_pooling2d_16 (MaxPooling (None, 74, 74, 64)        0         
_________________________________________________________________
conv2d_17 (Conv2D)           (None, 72, 72, 64)        36928     
_________________________________________________________________
max_pooling2d_17 (MaxPooling (None, 36, 36, 64)        0         
_________________________________________________________________
conv2d_18 (Conv2D)           (None, 34, 34, 128)       73856     
_________________________________________________________________
max_pooling2d_18 (MaxPooling (None, 17, 17, 128)       0         
_________________________________________________________________
conv2d_19 (Conv2D)           (None, 15, 15, 128)       147584    
_________________________________________________________________
max_pooling2d_19 (MaxPooling (None, 7, 7, 128)         0         
_________________________________________________________________
flatten_4 (Flatten)          (None, 6272)              0         
_________________________________________________________________
dropout_4 (Dropout)          (None, 6272)              0         
_________________________________________________________________
dense_8 (Dense)              (None, 512)               3211776   
_________________________________________________________________
dense_9 (Dense)              (None, 3)                 1539      
=================================================================
Total params: 3,473,475
Trainable params: 3,473,475
Non-trainable params: 0
_________________________________________________________________
&lt;/pre&gt;

&lt;p&gt;
You can see that the convolutional layers lose two pixels on output, so the filters are stopping when their edges match the image (so the 3 x 3 filter stops with the center one pixel away from the edge of the image). Additionally, our max-pooling layers are cutting the size of the convolutional layers' output in half, so as we progress through the network the inputs are getting smaller and smaller before reaching the fully-connected layers.
…
