…
t;/span&gt;
&lt;span class="p"&gt;])&lt;/span&gt;
&lt;/pre&gt;&lt;/div&gt;

&lt;div class="highlight"&gt;&lt;pre&gt;&lt;span&gt;&lt;/span&gt;&lt;span class="n"&gt;model&lt;/span&gt;&lt;span class="o"&gt;.&lt;/span&gt;&lt;span class="n"&gt;summary&lt;/span&gt;&lt;span class="p"&gt;()&lt;/span&gt;
&lt;/pre&gt;&lt;/div&gt;

&lt;pre class="example"&gt;
Model: "sequential_6"
_________________________________________________________________
Layer (type)                 Output Shape              Param #   
=================================================================
conv2d_12 (Conv2D)           (None, 26, 26, 64)        640       
_________________________________________________________________
max_pooling2d_12 (MaxPooling (None, 13, 13, 64)        0         
_________________________________________________________________
conv2d_13 (Conv2D)           (None, 11, 11, 128)       73856     
_________________________________________________________________
max_pooling2d_13 (MaxPooling (None, 5, 5, 128)         0         
_________________________________________________________________
flatten_6 (Flatten)          (None, 3200)              0         
_________________________________________________________________
dropout_6 (Dropout)          (None, 3200)              0         
_________________________________________________________________
dense_12 (Dense)             (None, 512)               1638912   
_________________________________________________________________
dense_13 (Dense)             (None, 25)                12825     
=================================================================
Total params: 1,726,233
Trainable params: 1,726,233
Non-trainable params: 0
_________________________________________________________________
&lt;/pre&gt;
&lt;/div&gt;

&lt;div id="outline-container-org6d9a1f0" class="outline-4"&gt;
&lt;h4 id="org6d9a1f0"&gt;Train It&lt;/h4&gt;
&lt;div class="outline-text-4" id="text-org6d9a1f0"&gt;
…
&lt;/pre&gt;&lt;/div&gt;

&lt;p&gt;
Here's a summary of the layers.
&lt;/p&gt;
&lt;div class="highlight"&gt;&lt;pre&gt;&lt;span&gt;&lt;/span&gt;&lt;span class="n"&gt;model&lt;/span&gt;&lt;span class="o"&gt;.&lt;/span&gt;&lt;span class="n"&gt;summary&lt;/span&gt;&lt;span class="p"&gt;()&lt;/span&gt;
&lt;/pre&gt;&lt;/div&gt;

&lt;pre class="example"&gt;
Model: "sequential_4"
_________________________________________________________________
Layer (type)                 Output Shape              Param #   
=================================================================
conv2d_16 (Conv2D)           (None, 148, 148, 64)      1792      
_________________________________________________________________
max_pooling2d_16 (MaxPooling (None, 74, 74, 64)        0         
_________________________________________________________________
conv2d_17 (Conv2D)           (None, 72, 72, 64)        36928     
_________________________________________________________________
max_pooling2d_17 (MaxPooling (None, 36, 36, 64)        0         
_________________________________________________________________
conv2d_18 (Conv2D)           (None, 34, 34, 128)       73856     
_________________________________________________________________
max_pooling2d_18 (MaxPooling (None, 17, 17, 128)       0         
_________________________________________________________________
conv2d_19 (Conv2D)           (None, 15, 15, 128)       147584    
_________________________________________________________________
max_pooling2d_19 (MaxPooling (None, 7, 7, 128)         0         
_________________________________________________________________
flatten_4 (Flatten)          (None, 6272)              0         
_________________________________________________________________
dropout_4 (Dropout)          (None, 6272)              0         
_________________________________________________________________
dense_8 (Dense)              (None, 512)               3211776   
_________________________________________________________________
dense_9 (Dense)              (None, 3)                 1539      
=================================================================
Total params: 3,473,475
Trainable params: 3,473,475
Non-trainable params: 0
_________________________________________________________________
&lt;/pre&gt;

&lt;p&gt;
You can see that the convolutional layers lose two pixels on output, so the filters are stopping when their edges match the image (so the 3 x 3 filter stops with the center one pixel away from the edge of the image). Additionally, our max-pooling layers are cutting the size of the convolutional layers' output in half, so as we progress through the network the inputs are getting smaller and smaller before reaching the fully-connected layers.
…
&lt;div class="highlight"&gt;&lt;pre&gt;&lt;span&gt;&lt;/span&gt;&lt;span class="n"&gt;network&lt;/span&gt; &lt;span class="o"&gt;=&lt;/span&gt; &lt;span class="n"&gt;Network&lt;/span&gt;&lt;span class="p"&gt;(&lt;/span&gt;&lt;span class="nb"&gt;str&lt;/span&gt;&lt;span class="p"&gt;(&lt;/span&gt;&lt;span class="n"&gt;training_path&lt;/span&gt;&lt;span class="p"&gt;))&lt;/span&gt;
&lt;span class="n"&gt;network&lt;/span&gt;&lt;span class="o"&gt;.&lt;/span&gt;&lt;span class="n"&gt;summary&lt;/span&gt;&lt;span class="p"&gt;()&lt;/span&gt;
&lt;/pre&gt;&lt;/div&gt;

&lt;pre class="example"&gt;
Model: "sequential_1"
_________________________________________________________________
Layer (type)                 Output Shape              Param #   
=================================================================
conv2d_3 (Conv2D)            (None, 148, 148, 16)      448       
_________________________________________________________________
max_pooling2d_3 (MaxPooling2 (None, 74, 74, 16)        0         
_________________________________________________________________
conv2d_4 (Conv2D)            (None, 72, 72, 32)        4640      
_________________________________________________________________
max_pooling2d_4 (MaxPooling2 (None, 36, 36, 32)        0         
_________________________________________________________________
conv2d_5 (Conv2D)            (None, 34, 34, 64)        18496     
_________________________________________________________________
max_pooling2d_5 (MaxPooling2 (None, 17, 17, 64)        0         
_________________________________________________________________
flatten_1 (Flatten)          (None, 18496)             0         
_________________________________________________________________
dense_2 (Dense)              (None, 512)               9470464   
_________________________________________________________________
dense_3 (Dense)              (None, 1)                 513       
=================================================================
Total params: 9,494,561
Trainable params: 9,494,561
Non-trainable params: 0
_________________________________________________________________
None
&lt;/pre&gt;
&lt;/div&gt;

&lt;div id="outline-container-org2cad0a9" class="outline-4"&gt;
&lt;h4 id="org2cad0a9"&gt;Training the Model&lt;/h4&gt;
&lt;div class="outline-text-4" id="text-org2cad0a9"&gt;
…
&lt;/p&gt;
&lt;/div&gt;
&lt;/div&gt;

&lt;div id="outline-container-orgf2902d2" class="outline-4"&gt;
&lt;h4 id="orgf2902d2"&gt;A Summary of the Model.&lt;/h4&gt;
&lt;div class="outline-text-4" id="text-orgf2902d2"&gt;
&lt;div class="highlight"&gt;&lt;pre&gt;&lt;span&gt;&lt;/span&gt;print(model.summary())
&lt;/pre&gt;&lt;/div&gt;

&lt;pre class="example"&gt;
Model: "sequential_2"
_________________________________________________________________
Layer (type)                 Output Shape              Param #   
=================================================================
conv2d_10 (Conv2D)           (None, 298, 298, 16)      448       
_________________________________________________________________
max_pooling2d_10 (MaxPooling (None, 149, 149, 16)      0         
_________________________________________________________________
conv2d_11 (Conv2D)           (None, 147, 147, 32)      4640      
_________________________________________________________________
max_pooling2d_11 (MaxPooling (None, 73, 73, 32)        0         
_________________________________________________________________
conv2d_12 (Conv2D)           (None, 71, 71, 64)        18496     
_________________________________________________________________
max_pooling2d_12 (MaxPooling (None, 35, 35, 64)        0         
_________________________________________________________________
conv2d_13 (Conv2D)           (None, 33, 33, 64)        36928     
_________________________________________________________________
max_pooling2d_13 (MaxPooling (None, 16, 16, 64)        0         
_________________________________________________________________
conv2d_14 (Conv2D)           (None, 14, 14, 64)        36928     
_________________________________________________________________
max_pooling2d_14 (MaxPooling (None, 7, 7, 64)          0         
_________________________________________________________________
flatten_2 (Flatten)          (None, 3136)              0         
_________________________________________________________________
dense_5 (Dense)              (None, 512)               1606144   
_________________________________________________________________
dense_6 (Dense)              (None, 1)                 513       
=================================================================
Total params: 1,704,097
Trainable params: 1,704,097
Non-trainable params: 0
_________________________________________________________________
None
&lt;/pre&gt;

&lt;p&gt;
That's a lot of parameters… It's interesting to note that by the time the data gets fed into the &lt;code&gt;Flatten&lt;/code&gt; layer it has been reduced to a 7 x 7 x 64 matrix.
…
&lt;span class="n"&gt;builder&lt;/span&gt; &lt;span class="o"&gt;=&lt;/span&gt; &lt;span class="n"&gt;ModelBuilder&lt;/span&gt;&lt;span class="p"&gt;(&lt;/span&gt;&lt;span class="n"&gt;epochs&lt;/span&gt;&lt;span class="o"&gt;=&lt;/span&gt;&lt;span class="mi"&gt;5&lt;/span&gt;&lt;span class="p"&gt;)&lt;/span&gt;
&lt;span class="n"&gt;builder&lt;/span&gt;&lt;span class="o"&gt;.&lt;/span&gt;&lt;span class="n"&gt;print_summary&lt;/span&gt;&lt;span class="p"&gt;()&lt;/span&gt;
&lt;/pre&gt;&lt;/div&gt;

&lt;pre class="example"&gt;
Model: "sequential_17"
_________________________________________________________________
Layer (type)                 Output Shape              Param #   
=================================================================
conv2d_32 (Conv2D)           (None, 26, 26, 32)        320       
_________________________________________________________________
max_pooling2d_32 (MaxPooling (None, 13, 13, 32)        0         
_________________________________________________________________
conv2d_33 (Conv2D)           (None, 11, 11, 32)        9248      
_________________________________________________________________
max_pooling2d_33 (MaxPooling (None, 5, 5, 32)          0         
_________________________________________________________________
flatten_17 (Flatten)         (None, 800)               0         
_________________________________________________________________
dense_34 (Dense)             (None, 128)               102528    
_________________________________________________________________
dense_35 (Dense)             (None, 10)                1290      
=================================================================
Total params: 113,386
Trainable params: 113,386
Non-trainable params: 0
_________________________________________________________________
None
&lt;/pre&gt;
&lt;/div&gt;
&lt;/li&gt;
&lt;/ul&gt;
&lt;/div&gt;

&lt;div id="outline-container-org1e14778" class="outline-4"&gt;
&lt;h4 id="org1e14778"&gt;Layer By Layer&lt;/h4&gt;
&lt;div class="outline-text-4" id="text-org1e14778"&gt;
…
