…
&lt;/div&gt;

&lt;div id="outline-container-orgd8b826e" class="outline-4"&gt;
&lt;h4 id="orgd8b826e"&gt;A Summary of the Model.&lt;/h4&gt;
&lt;div class="outline-text-4" id="text-orgd8b826e"&gt;
&lt;div class="highlight"&gt;&lt;pre&gt;&lt;span&gt;&lt;/span&gt;print(model.summary())
&lt;/pre&gt;&lt;/div&gt;

&lt;pre class="example" id="orga3bdb8e"&gt;
Model: "sequential_2"
_________________________________________________________________
Layer (type)                 Output Shape              Param #   
=================================================================
conv2d_10 (Conv2D)           (None, 298, 298, 16)      448       
_________________________________________________________________
max_pooling2d_10 (MaxPooling (None, 149, 149, 16)      0         
_________________________________________________________________
conv2d_11 (Conv2D)           (None, 147, 147, 32)      4640      
_________________________________________________________________
max_pooling2d_11 (MaxPooling (None, 73, 73, 32)        0         
_________________________________________________________________
conv2d_12 (Conv2D)           (None, 71, 71, 64)        18496     
_________________________________________________________________
max_pooling2d_12 (MaxPooling (None, 35, 35, 64)        0         
_________________________________________________________________
conv2d_13 (Conv2D)           (None, 33, 33, 64)        36928     
_________________________________________________________________
max_pooling2d_13 (MaxPooling (None, 16, 16, 64)        0         
_________________________________________________________________
conv2d_14 (Conv2D)           (None, 14, 14, 64)        36928     
_________________________________________________________________
max_pooling2d_14 (MaxPooling (None, 7, 7, 64)          0         
_________________________________________________________________
flatten_2 (Flatten)          (None, 3136)              0         
_________________________________________________________________
dense_5 (Dense)              (None, 512)               1606144   
_________________________________________________________________
dense_6 (Dense)              (None, 1)                 513       
=================================================================
Total params: 1,704,097
Trainable params: 1,704,097
Non-trainable params: 0
_________________________________________________________________
None
&lt;/pre&gt;

&lt;p&gt;
That's a lot of parameters… It's interesting to note that by the time the data gets fed into the &lt;code&gt;Flatten&lt;/code&gt; layer it has been reduced to a 7 x 7 x 64 matrix.
…
