…
                f"Data: {self.data}\n"
                f"Callbacks: {self.callbacks}")
#+end_src

**Warning:** I'm adapting the class definitions after running the fitting so don't run these again or the output will change.
#+begin_src python :session catsanddogs :results output :exports both
network = Network(str(training_path))
network.summary()
#+end_src

#+RESULTS:
#+begin_example
Model: "sequential_1"
_________________________________________________________________
Layer (type)                 Output Shape              Param #   
=================================================================
conv2d_3 (Conv2D)            (None, 148, 148, 16)      448       
_________________________________________________________________
max_pooling2d_3 (MaxPooling2 (None, 74, 74, 16)        0         
_________________________________________________________________
conv2d_4 (Conv2D)            (None, 72, 72, 32)        4640      
_________________________________________________________________
max_pooling2d_4 (MaxPooling2 (None, 36, 36, 32)        0         
_________________________________________________________________
conv2d_5 (Conv2D)            (None, 34, 34, 64)        18496     
_________________________________________________________________
max_pooling2d_5 (MaxPooling2 (None, 17, 17, 64)        0         
_________________________________________________________________
flatten_1 (Flatten)          (None, 18496)             0         
_________________________________________________________________
dense_2 (Dense)              (None, 512)               9470464   
_________________________________________________________________
dense_3 (Dense)              (None, 1)                 513       
=================================================================
Total params: 9,494,561
Trainable params: 9,494,561
Non-trainable params: 0
_________________________________________________________________
None
#+end_example

*** Training the Model

#+begin_src python :session catsanddogs :results output :exports both
network.train()
#+end_src

#+RESULTS:
#+begin_example
Found 20000 images belonging to 2 classes.
…
