…
    tensorflow.keras.layers.Flatten(),
    tensorflow.keras.layers.Dropout(0.5),
    # Fully-connected and output layers
    tensorflow.keras.layers.Dense(512, activation='relu'),
    tensorflow.keras.layers.Dense(25, activation='softmax'),
])
#+end_src

#+begin_src ipython :session signs :results output :exports both
model.summary()
#+end_src

#+RESULTS:
#+begin_example
Model: "sequential_6"
_________________________________________________________________
Layer (type)                 Output Shape              Param #   
=================================================================
conv2d_12 (Conv2D)           (None, 26, 26, 64)        640       
_________________________________________________________________
max_pooling2d_12 (MaxPooling (None, 13, 13, 64)        0         
_________________________________________________________________
conv2d_13 (Conv2D)           (None, 11, 11, 128)       73856     
_________________________________________________________________
max_pooling2d_13 (MaxPooling (None, 5, 5, 128)         0         
_________________________________________________________________
flatten_6 (Flatten)          (None, 3200)              0         
_________________________________________________________________
dropout_6 (Dropout)          (None, 3200)              0         
_________________________________________________________________
dense_12 (Dense)             (None, 512)               1638912   
_________________________________________________________________
dense_13 (Dense)             (None, 25)                12825     
=================================================================
Total params: 1,726,233
Trainable params: 1,726,233
Non-trainable params: 0
_________________________________________________________________
#+end_example

*** Train It
#+begin_src ipython :session signs :results output :exports both
model.compile(loss="categorical_crossentropy", optimizer="rmsprop", metrics=["accuracy"])
MODELS = Path("~/models/sign-language-mnist/").expanduser()
…
