…
    model.add(tensorflow.keras.layers.Dense(10, activation="softmax"))
    model.compile(optimizer="adam", loss="sparse_categorical_crossentropy", 
                  metrics=["accuracy"])
    return model
#+end_src

#+begin_src ipython :session cnn :results output :exports both
model = create_model()
print(model.summary())
#+end_src

#+RESULTS:
#+begin_example
Model: "sequential_7"
_________________________________________________________________
Layer (type)                 Output Shape              Param #   
=================================================================
conv2d_8 (Conv2D)            (None, 26, 26, 64)        640       
_________________________________________________________________
max_pooling2d_8 (MaxPooling2 (None, 13, 13, 64)        0         
_________________________________________________________________
conv2d_9 (Conv2D)            (None, 11, 11, 64)        36928     
_________________________________________________________________
max_pooling2d_9 (MaxPooling2 (None, 5, 5, 64)          0         
_________________________________________________________________
flatten_7 (Flatten)          (None, 1600)              0         
_________________________________________________________________
dense_13 (Dense)             (None, 128)               204928    
_________________________________________________________________
dense_14 (Dense)             (None, 10)                1290      
=================================================================
Total params: 243,786
Trainable params: 243,786
Non-trainable params: 0
_________________________________________________________________
None
#+end_example

*** Layer By Layer
    - Our input is a set of 28 x 28 images.
    - The convolutional layer

#+begin_src ipython :session cnn :results none
def fit_model(model, epochs=5):
…
