…
        """Builds and tests the model"""
        self.fit()
        loss, accuracy = self.test()
        print(f"Testing Loss: {loss:.2f}  Testing Accuracy: {accuracy:.2f}")
        return
#+end_src



#+begin_src ipython :session cnn :results output :exports both
# model = create_model()
builder = ModelBuilder()
builder.print_summary()
#+end_src

#+RESULTS:
#+begin_example
Model: "sequential_2"
_________________________________________________________________
Layer (type)                 Output Shape              Param #   
=================================================================
conv2d_2 (Conv2D)            (None, 26, 26, 32)        320       
_________________________________________________________________
max_pooling2d_2 (MaxPooling2 (None, 13, 13, 32)        0         
_________________________________________________________________
conv2d_3 (Conv2D)            (None, 11, 11, 32)        9248      
_________________________________________________________________
max_pooling2d_3 (MaxPooling2 (None, 5, 5, 32)          0         
_________________________________________________________________
flatten_2 (Flatten)          (None, 800)               0         
_________________________________________________________________
dense_4 (Dense)              (None, 128)               102528    
_________________________________________________________________
dense_5 (Dense)              (None, 10)                1290      
=================================================================
Total params: 113,386
Trainable params: 113,386
Non-trainable params: 0
_________________________________________________________________
None
#+end_example

*** Layer By Layer
    - Our input is a set of 28 x 28 images.
    - Because we didn't pad the images, the convolutional layer "trims" off one row and column on each side (the center cell can't reach the outermost cells) so we get a 26 x 26 grid with 64 filters (which is what we set up in the definition).
…
