…
One thing that's not so obvious is what the output means - is it predicting that it's a human or that it's a horse? There isn't really anything to indicate which is which. Presumably, like the case with the MNIST and Fashion MNIST, the alphabetical ordering of the folders is what determines what we're predicting.

*** A Summary of the Model.
#+begin_src python :session horses :results output :exports both
print(model.summary())
#+end_src

#+RESULTS:
#+begin_example
Model: "sequential_1"
_________________________________________________________________
Layer (type)                 Output Shape              Param #   
=================================================================
conv2d_5 (Conv2D)            (None, 298, 298, 16)      448       
_________________________________________________________________
max_pooling2d_5 (MaxPooling2 (None, 149, 149, 16)      0         
_________________________________________________________________
conv2d_6 (Conv2D)            (None, 147, 147, 32)      4640      
_________________________________________________________________
max_pooling2d_6 (MaxPooling2 (None, 73, 73, 32)        0         
_________________________________________________________________
conv2d_7 (Conv2D)            (None, 71, 71, 64)        18496     
_________________________________________________________________
max_pooling2d_7 (MaxPooling2 (None, 35, 35, 64)        0         
_________________________________________________________________
conv2d_8 (Conv2D)            (None, 33, 33, 64)        36928     
_________________________________________________________________
max_pooling2d_8 (MaxPooling2 (None, 16, 16, 64)        0         
_________________________________________________________________
conv2d_9 (Conv2D)            (None, 14, 14, 64)        36928     
_________________________________________________________________
max_pooling2d_9 (MaxPooling2 (None, 7, 7, 64)          0         
_________________________________________________________________
flatten_1 (Flatten)          (None, 3136)              0         
_________________________________________________________________
dense_2 (Dense)              (None, 512)               1606144   
_________________________________________________________________
dense_3 (Dense)              (None, 1)                 513       
=================================================================
Total params: 1,704,097
Trainable params: 1,704,097
Non-trainable params: 0
_________________________________________________________________
None
#+end_example

That's a lot of parameters... It's interesting to note that by the time the data gets fed into the =Flatten= layer it has been reduced to a 7 x 7 x 64 matrix.

#+begin_src python :session horses :results output :exports both
…
