…
    tensorflow.keras.layers.Dropout(0.5),
    # Fully-connected and output layers
    tensorflow.keras.layers.Dense(512, activation='relu'),
    tensorflow.keras.layers.Dense(3, activation='softmax')
])
#+end_src

Here's a summary of the layers.
#+begin_src ipython :session cnn :results output :exports both
model.summary()
#+end_src

#+RESULTS:
#+begin_example
Model: "sequential_1"
_________________________________________________________________
Layer (type)                 Output Shape              Param #   
=================================================================
conv2d_4 (Conv2D)            (None, 148, 148, 64)      1792      
_________________________________________________________________
max_pooling2d_4 (MaxPooling2 (None, 74, 74, 64)        0         
_________________________________________________________________
conv2d_5 (Conv2D)            (None, 72, 72, 64)        36928     
_________________________________________________________________
max_pooling2d_5 (MaxPooling2 (None, 36, 36, 64)        0         
_________________________________________________________________
conv2d_6 (Conv2D)            (None, 34, 34, 128)       73856     
_________________________________________________________________
max_pooling2d_6 (MaxPooling2 (None, 17, 17, 128)       0         
_________________________________________________________________
conv2d_7 (Conv2D)            (None, 15, 15, 128)       147584    
_________________________________________________________________
max_pooling2d_7 (MaxPooling2 (None, 7, 7, 128)         0         
_________________________________________________________________
flatten_1 (Flatten)          (None, 6272)              0         
_________________________________________________________________
dropout_1 (Dropout)          (None, 6272)              0         
_________________________________________________________________
dense_2 (Dense)              (None, 512)               3211776   
_________________________________________________________________
dense_3 (Dense)              (None, 3)                 1539      
=================================================================
Total params: 3,473,475
Trainable params: 3,473,475
Non-trainable params: 0
_________________________________________________________________
#+end_example

You can see that the convolutional layers lose two pixels on output, so the filters are stopping when their edges match the image (so the 3 x 3 filter stops with the center one pixel away from the edge of the image). Additionally, our max-pooling layers are cutting the size of the convolutional layers' output in half, so as we progress through the network the inputs are getting smaller and smaller before reaching the fully-connected layers.
…
